<?xml version="1.0" ?>
<net name="vino_cnn2d" version="10">
	<layers>
		<layer id="0" name="input_1" type="Parameter" version="opset1">
			<data element_type="f32" shape="22880,1,5,10"/>
			<output>
				<port id="0" precision="FP32">
					<dim>22880</dim>
					<dim>1</dim>
					<dim>5</dim>
					<dim>10</dim>
				</port>
			</output>
		</layer>
		<layer id="1" name="conv2d/Conv2D/ReadVariableOp/Output_0/Data__const" type="Const" version="opset1">
			<data element_type="f32" offset="0" shape="128,1,4,4" size="8192"/>
			<output>
				<port id="1" precision="FP32">
					<dim>128</dim>
					<dim>1</dim>
					<dim>4</dim>
					<dim>4</dim>
				</port>
			</output>
		</layer>
		<layer id="2" name="conv2d/Conv2D" type="Convolution" version="opset1">
			<data auto_pad="same_upper" dilations="1,1" output_padding="0,0" pads_begin="1,1" pads_end="2,2" strides="1,1"/>
			<input>
				<port id="0">
					<dim>22880</dim>
					<dim>1</dim>
					<dim>5</dim>
					<dim>10</dim>
				</port>
				<port id="1">
					<dim>128</dim>
					<dim>1</dim>
					<dim>4</dim>
					<dim>4</dim>
				</port>
			</input>
			<output>
				<port id="2" precision="FP32">
					<dim>22880</dim>
					<dim>128</dim>
					<dim>5</dim>
					<dim>10</dim>
				</port>
			</output>
		</layer>
		<layer id="3" name="conv2d/BiasAdd/ReadVariableOp/Output_0/Data_/copy_const" type="Const" version="opset1">
			<data element_type="f32" offset="8192" shape="1,128,1,1" size="512"/>
			<output>
				<port id="1" precision="FP32">
					<dim>1</dim>
					<dim>128</dim>
					<dim>1</dim>
					<dim>1</dim>
				</port>
			</output>
		</layer>
		<layer id="4" name="conv2d/BiasAdd/Add" type="Add" version="opset1">
			<input>
				<port id="0">
					<dim>22880</dim>
					<dim>128</dim>
					<dim>5</dim>
					<dim>10</dim>
				</port>
				<port id="1">
					<dim>1</dim>
					<dim>128</dim>
					<dim>1</dim>
					<dim>1</dim>
				</port>
			</input>
			<output>
				<port id="2" precision="FP32">
					<dim>22880</dim>
					<dim>128</dim>
					<dim>5</dim>
					<dim>10</dim>
				</port>
			</output>
		</layer>
		<layer id="5" name="conv2d/Relu" type="ReLU" version="opset1">
			<input>
				<port id="0">
					<dim>22880</dim>
					<dim>128</dim>
					<dim>5</dim>
					<dim>10</dim>
				</port>
			</input>
			<output>
				<port id="1" precision="FP32">
					<dim>22880</dim>
					<dim>128</dim>
					<dim>5</dim>
					<dim>10</dim>
				</port>
			</output>
		</layer>
		<layer id="6" name="max_pooling2d/MaxPool" type="MaxPool" version="opset1">
			<data auto_pad="same_upper" kernel="2,2" pads_begin="0,0" pads_end="1,0" strides="2,2"/>
			<input>
				<port id="0">
					<dim>22880</dim>
					<dim>128</dim>
					<dim>5</dim>
					<dim>10</dim>
				</port>
			</input>
			<output>
				<port id="1" precision="FP32">
					<dim>22880</dim>
					<dim>128</dim>
					<dim>3</dim>
					<dim>5</dim>
				</port>
			</output>
		</layer>
		<layer id="7" name="conv2d_1/Conv2D/ReadVariableOp/Output_0/Data__const" type="Const" version="opset1">
			<data element_type="f32" offset="8704" shape="128,128,4,4" size="1048576"/>
			<output>
				<port id="1" precision="FP32">
					<dim>128</dim>
					<dim>128</dim>
					<dim>4</dim>
					<dim>4</dim>
				</port>
			</output>
		</layer>
		<layer id="8" name="conv2d_1/Conv2D" type="Convolution" version="opset1">
			<data auto_pad="same_upper" dilations="1,1" output_padding="0,0" pads_begin="1,1" pads_end="2,2" strides="1,1"/>
			<input>
				<port id="0">
					<dim>22880</dim>
					<dim>128</dim>
					<dim>3</dim>
					<dim>5</dim>
				</port>
				<port id="1">
					<dim>128</dim>
					<dim>128</dim>
					<dim>4</dim>
					<dim>4</dim>
				</port>
			</input>
			<output>
				<port id="2" precision="FP32">
					<dim>22880</dim>
					<dim>128</dim>
					<dim>3</dim>
					<dim>5</dim>
				</port>
			</output>
		</layer>
		<layer id="9" name="conv2d_1/BiasAdd/ReadVariableOp/Output_0/Data_/copy_const" type="Const" version="opset1">
			<data element_type="f32" offset="1057280" shape="1,128,1,1" size="512"/>
			<output>
				<port id="1" precision="FP32">
					<dim>1</dim>
					<dim>128</dim>
					<dim>1</dim>
					<dim>1</dim>
				</port>
			</output>
		</layer>
		<layer id="10" name="conv2d_1/BiasAdd/Add" type="Add" version="opset1">
			<input>
				<port id="0">
					<dim>22880</dim>
					<dim>128</dim>
					<dim>3</dim>
					<dim>5</dim>
				</port>
				<port id="1">
					<dim>1</dim>
					<dim>128</dim>
					<dim>1</dim>
					<dim>1</dim>
				</port>
			</input>
			<output>
				<port id="2" precision="FP32">
					<dim>22880</dim>
					<dim>128</dim>
					<dim>3</dim>
					<dim>5</dim>
				</port>
			</output>
		</layer>
		<layer id="11" name="conv2d_1/Relu" type="ReLU" version="opset1">
			<input>
				<port id="0">
					<dim>22880</dim>
					<dim>128</dim>
					<dim>3</dim>
					<dim>5</dim>
				</port>
			</input>
			<output>
				<port id="1" precision="FP32">
					<dim>22880</dim>
					<dim>128</dim>
					<dim>3</dim>
					<dim>5</dim>
				</port>
			</output>
		</layer>
		<layer id="12" name="max_pooling2d_1/MaxPool" type="MaxPool" version="opset1">
			<data auto_pad="same_upper" kernel="2,2" pads_begin="0,0" pads_end="1,1" strides="2,2"/>
			<input>
				<port id="0">
					<dim>22880</dim>
					<dim>128</dim>
					<dim>3</dim>
					<dim>5</dim>
				</port>
			</input>
			<output>
				<port id="1" precision="FP32">
					<dim>22880</dim>
					<dim>128</dim>
					<dim>2</dim>
					<dim>3</dim>
				</port>
			</output>
		</layer>
		<layer id="13" name="max_pooling2d_1/MaxPool/Transpose/Cast_11194_const" type="Const" version="opset1">
			<data element_type="i64" offset="1057792" shape="4" size="32"/>
			<output>
				<port id="1" precision="I64">
					<dim>4</dim>
				</port>
			</output>
		</layer>
		<layer id="14" name="max_pooling2d_1/MaxPool/Transpose" type="Transpose" version="opset1">
			<input>
				<port id="0">
					<dim>22880</dim>
					<dim>128</dim>
					<dim>2</dim>
					<dim>3</dim>
				</port>
				<port id="1">
					<dim>4</dim>
				</port>
			</input>
			<output>
				<port id="2" precision="FP32">
					<dim>22880</dim>
					<dim>2</dim>
					<dim>3</dim>
					<dim>128</dim>
				</port>
			</output>
		</layer>
		<layer id="15" name="flatten/Reshape/Cast_11196_const" type="Const" version="opset1">
			<data element_type="i64" offset="1057824" shape="2" size="16"/>
			<output>
				<port id="1" precision="I64">
					<dim>2</dim>
				</port>
			</output>
		</layer>
		<layer id="16" name="flatten/Reshape" type="Reshape" version="opset1">
			<data special_zero="True"/>
			<input>
				<port id="0">
					<dim>22880</dim>
					<dim>2</dim>
					<dim>3</dim>
					<dim>128</dim>
				</port>
				<port id="1">
					<dim>2</dim>
				</port>
			</input>
			<output>
				<port id="2" precision="FP32">
					<dim>22880</dim>
					<dim>768</dim>
				</port>
			</output>
		</layer>
		<layer id="17" name="FC1_layer/MatMul/1_port_transpose959_const" type="Const" version="opset1">
			<data element_type="f32" offset="1057840" shape="128,768" size="393216"/>
			<output>
				<port id="1" precision="FP32">
					<dim>128</dim>
					<dim>768</dim>
				</port>
			</output>
		</layer>
		<layer id="18" name="FC1_layer/MatMul" type="MatMul" version="opset1">
			<data transpose_a="False" transpose_b="True"/>
			<input>
				<port id="0">
					<dim>22880</dim>
					<dim>768</dim>
				</port>
				<port id="1">
					<dim>128</dim>
					<dim>768</dim>
				</port>
			</input>
			<output>
				<port id="2" precision="FP32">
					<dim>22880</dim>
					<dim>128</dim>
				</port>
			</output>
		</layer>
		<layer id="19" name="FC1_layer/BiasAdd/ReadVariableOp/Output_0/Data_/copy_const" type="Const" version="opset1">
			<data element_type="f32" offset="1451056" shape="1,128" size="512"/>
			<output>
				<port id="1" precision="FP32">
					<dim>1</dim>
					<dim>128</dim>
				</port>
			</output>
		</layer>
		<layer id="20" name="FC1_layer/BiasAdd/Add" type="Add" version="opset1">
			<input>
				<port id="0">
					<dim>22880</dim>
					<dim>128</dim>
				</port>
				<port id="1">
					<dim>1</dim>
					<dim>128</dim>
				</port>
			</input>
			<output>
				<port id="2" precision="FP32">
					<dim>22880</dim>
					<dim>128</dim>
				</port>
			</output>
		</layer>
		<layer id="21" name="FC1_layer/Relu" type="ReLU" version="opset1">
			<input>
				<port id="0">
					<dim>22880</dim>
					<dim>128</dim>
				</port>
			</input>
			<output>
				<port id="1" precision="FP32">
					<dim>22880</dim>
					<dim>128</dim>
				</port>
			</output>
		</layer>
		<layer id="22" name="FC2_layer/MatMul/1_port_transpose955_const" type="Const" version="opset1">
			<data element_type="f32" offset="1451568" shape="128,128" size="65536"/>
			<output>
				<port id="1" precision="FP32">
					<dim>128</dim>
					<dim>128</dim>
				</port>
			</output>
		</layer>
		<layer id="23" name="FC2_layer/MatMul" type="MatMul" version="opset1">
			<data transpose_a="False" transpose_b="True"/>
			<input>
				<port id="0">
					<dim>22880</dim>
					<dim>128</dim>
				</port>
				<port id="1">
					<dim>128</dim>
					<dim>128</dim>
				</port>
			</input>
			<output>
				<port id="2" precision="FP32">
					<dim>22880</dim>
					<dim>128</dim>
				</port>
			</output>
		</layer>
		<layer id="24" name="FC2_layer/BiasAdd/ReadVariableOp/Output_0/Data_/copy_const" type="Const" version="opset1">
			<data element_type="f32" offset="1517104" shape="1,128" size="512"/>
			<output>
				<port id="1" precision="FP32">
					<dim>1</dim>
					<dim>128</dim>
				</port>
			</output>
		</layer>
		<layer id="25" name="FC2_layer/BiasAdd/Add" type="Add" version="opset1">
			<input>
				<port id="0">
					<dim>22880</dim>
					<dim>128</dim>
				</port>
				<port id="1">
					<dim>1</dim>
					<dim>128</dim>
				</port>
			</input>
			<output>
				<port id="2" precision="FP32">
					<dim>22880</dim>
					<dim>128</dim>
				</port>
			</output>
		</layer>
		<layer id="26" name="FC2_layer/Relu" type="ReLU" version="opset1">
			<input>
				<port id="0">
					<dim>22880</dim>
					<dim>128</dim>
				</port>
			</input>
			<output>
				<port id="1" precision="FP32">
					<dim>22880</dim>
					<dim>128</dim>
				</port>
			</output>
		</layer>
		<layer id="27" name="top_level_output/MatMul/1_port_transpose963_const" type="Const" version="opset1">
			<data element_type="f32" offset="1517616" shape="2,128" size="1024"/>
			<output>
				<port id="1" precision="FP32">
					<dim>2</dim>
					<dim>128</dim>
				</port>
			</output>
		</layer>
		<layer id="28" name="top_level_output/MatMul" type="MatMul" version="opset1">
			<data transpose_a="False" transpose_b="True"/>
			<input>
				<port id="0">
					<dim>22880</dim>
					<dim>128</dim>
				</port>
				<port id="1">
					<dim>2</dim>
					<dim>128</dim>
				</port>
			</input>
			<output>
				<port id="2" precision="FP32">
					<dim>22880</dim>
					<dim>2</dim>
				</port>
			</output>
		</layer>
		<layer id="29" name="top_level_output/BiasAdd/ReadVariableOp/Output_0/Data_/copy_const" type="Const" version="opset1">
			<data element_type="f32" offset="1518640" shape="1,2" size="8"/>
			<output>
				<port id="1" precision="FP32">
					<dim>1</dim>
					<dim>2</dim>
				</port>
			</output>
		</layer>
		<layer id="30" name="top_level_output/BiasAdd/Add" type="Add" version="opset1">
			<input>
				<port id="0">
					<dim>22880</dim>
					<dim>2</dim>
				</port>
				<port id="1">
					<dim>1</dim>
					<dim>2</dim>
				</port>
			</input>
			<output>
				<port id="2" precision="FP32">
					<dim>22880</dim>
					<dim>2</dim>
				</port>
			</output>
		</layer>
		<layer id="31" name="top_level_output/Softmax" type="SoftMax" version="opset1">
			<data axis="1"/>
			<input>
				<port id="0">
					<dim>22880</dim>
					<dim>2</dim>
				</port>
			</input>
			<output>
				<port id="1" precision="FP32">
					<dim>22880</dim>
					<dim>2</dim>
				</port>
			</output>
		</layer>
		<layer id="32" name="top_level_output/Softmax/sink_port_0" type="Result" version="opset1">
			<input>
				<port id="0">
					<dim>22880</dim>
					<dim>2</dim>
				</port>
			</input>
		</layer>
	</layers>
	<edges>
		<edge from-layer="0" from-port="0" to-layer="2" to-port="0"/>
		<edge from-layer="1" from-port="1" to-layer="2" to-port="1"/>
		<edge from-layer="2" from-port="2" to-layer="4" to-port="0"/>
		<edge from-layer="3" from-port="1" to-layer="4" to-port="1"/>
		<edge from-layer="4" from-port="2" to-layer="5" to-port="0"/>
		<edge from-layer="5" from-port="1" to-layer="6" to-port="0"/>
		<edge from-layer="6" from-port="1" to-layer="8" to-port="0"/>
		<edge from-layer="7" from-port="1" to-layer="8" to-port="1"/>
		<edge from-layer="8" from-port="2" to-layer="10" to-port="0"/>
		<edge from-layer="9" from-port="1" to-layer="10" to-port="1"/>
		<edge from-layer="10" from-port="2" to-layer="11" to-port="0"/>
		<edge from-layer="11" from-port="1" to-layer="12" to-port="0"/>
		<edge from-layer="12" from-port="1" to-layer="14" to-port="0"/>
		<edge from-layer="13" from-port="1" to-layer="14" to-port="1"/>
		<edge from-layer="14" from-port="2" to-layer="16" to-port="0"/>
		<edge from-layer="15" from-port="1" to-layer="16" to-port="1"/>
		<edge from-layer="16" from-port="2" to-layer="18" to-port="0"/>
		<edge from-layer="17" from-port="1" to-layer="18" to-port="1"/>
		<edge from-layer="18" from-port="2" to-layer="20" to-port="0"/>
		<edge from-layer="19" from-port="1" to-layer="20" to-port="1"/>
		<edge from-layer="20" from-port="2" to-layer="21" to-port="0"/>
		<edge from-layer="21" from-port="1" to-layer="23" to-port="0"/>
		<edge from-layer="22" from-port="1" to-layer="23" to-port="1"/>
		<edge from-layer="23" from-port="2" to-layer="25" to-port="0"/>
		<edge from-layer="24" from-port="1" to-layer="25" to-port="1"/>
		<edge from-layer="25" from-port="2" to-layer="26" to-port="0"/>
		<edge from-layer="26" from-port="1" to-layer="28" to-port="0"/>
		<edge from-layer="27" from-port="1" to-layer="28" to-port="1"/>
		<edge from-layer="28" from-port="2" to-layer="30" to-port="0"/>
		<edge from-layer="29" from-port="1" to-layer="30" to-port="1"/>
		<edge from-layer="30" from-port="2" to-layer="31" to-port="0"/>
		<edge from-layer="31" from-port="1" to-layer="32" to-port="0"/>
	</edges>
	<meta_data>
		<MO_version value=""/>
		<cli_parameters>
			<blobs_as_inputs value="True"/>
			<data_type value="float"/>
			<disable_nhwc_to_nchw value="False"/>
			<disable_resnet_optimization value="False"/>
			<disable_weights_compression value="False"/>
			<enable_concat_optimization value="False"/>
			<extensions value="DIR"/>
			<framework value="tf"/>
			<freeze_placeholder_with_value value="{}"/>
			<generate_deprecated_IR_V2 value="False"/>
			<generate_deprecated_IR_V7 value="False"/>
			<generate_experimental_IR_V10 value="True"/>
			<input_model value="DIR/vino_cnn2d.pb"/>
			<input_model_is_text value="False"/>
			<input_shape value="[22880,5,10,1]"/>
			<keep_quantize_ops_in_IR value="True"/>
			<keep_shape_ops value="False"/>
			<log_level value="ERROR"/>
			<mean_scale_values value="{}"/>
			<mean_values value="()"/>
			<model_name value="vino_cnn2d"/>
			<move_to_preprocess value="False"/>
			<output_dir value="DIR"/>
			<placeholder_data_types value="{}"/>
			<placeholder_shapes value="[22880     5    10     1]"/>
			<progress value="False"/>
			<reverse_input_channels value="False"/>
			<scale_values value="()"/>
			<silent value="False"/>
			<stream_output value="False"/>
			<unset unset_cli_parameters="batch, disable_fusing, disable_gfusing, finegrain_fusing, input, input_checkpoint, input_meta_graph, output, saved_model_dir, saved_model_tags, scale, tensorboard_logdir, tensorflow_custom_layer_libraries, tensorflow_custom_operations_config_update, tensorflow_object_detection_api_pipeline_config, tensorflow_use_custom_operations_config, transformations_config"/>
		</cli_parameters>
	</meta_data>
</net>
